model.ckpt (torch, 49095 bytes, 12 tensors)

fc1.weight f4 [32, 320]
0	0xbd57b3d1	-0.05266172
1	0xbc33b370	-0.010968074
2	0xbcdbf507	-0.026850237
3	0xbc7448dc	-0.014909949
4	0xbd4a4655	-0.04938348
5	0x3cb7c4e8	0.02243276
6	0xbd4d40bf	-0.050110575
7	0xbb6972d0	-0.0035621412
8	0x3c9f3018	0.019432113
9	0xbc9a5ce6	-0.018843126
10	0x3d01ec54	0.03171952
11	0x3be70960	0.007050678
12	0x3cfbbbd8	0.03072922
13	0x3d12e916	0.03586682
14	0xbcca28bf	-0.024677632
15	0x3ca66d90	0.020315915
16	0xbcc62174	-0.024185874
17	0x3c8f8c60	0.01752299
18	0xbcef4596	-0.029207986
19	0x3cd3d4fc	0.025858395
20	0x3c396b18	0.011317037
21	0xbcb336dc	-0.021876745
22	0xbce09ef2	-0.027419541
23	0x3c6cf6a0	0.014463097
24	0x3d55a320	0.05215752
25	0x3cdbc498	0.026827142
26	0xbbb0e290	-0.005398102
27	0xbb31d2e0	-0.0027133748
28	0x3d022558	0.031773895
29	0xbd1f2362	-0.038852103
30	0x3c983e6c	0.018584453
31	0xbc97be10	-0.018523246
32	0x3d047ac8	0.032343656
33	0xbca35be8	-0.019941285
34	0x3b3527a0	0.0027642027
35	0x3c9aa3dc	0.018876962
36	0x3d1d5b72	0.038417287
37	0xbc069f00	-0.0082166195
38	0x3d50e3f8	0.050998658
39	0xbd41b8d6	-0.047295414
40	0xbc23601c	-0.009971645
41	0xbd6453a2	-0.05574382
42	0x3b97bec0	0.0046308935
43	0x3c81f4cc	0.015863799
44	0xbcb96142	-0.022629384
45	0x3cbe3228	0.023217276
46	0xbc147980	-0.009062171
47	0xbd46f99d	-0.048577894
48	0x3d2fca58	0.04291758
49	0x3d0d2d34	0.034466937
50	0x3ce78a98	0.028264329
51	0x3d36a4b4	0.044590667
52	0x3ca8656c	0.020556174
53	0x3cf37c58	0.029722378
54	0x3d3e027c	0.046389088
55	0xbc388960	-0.0112632215
56	0xbd3293dd	-0.043598045
57	0xbce136f5	-0.027492026
58	0xbbf486c8	-0.0074623562
59	0xbbc949f8	-0.006142851
60	0xb9c6a400	-0.00037887692
61	0x3d0337da	0.032035686
62	0x3c92e7bc	0.017932765
63	0xbd294d10	-0.04133326
64	0xbc8991d6	-0.016793173
65	0xbc5776b0	-0.013150856
66	0x3d0b5b36	0.034022532
67	0xbca6222e	-0.02027997
68	0xbcbf990c	-0.023388408
69	0xbc1341fc	-0.0089879
70	0xbc68fa0c	-0.014219772
71	0xbc6181fc	-0.013763901
72	0xbd600975	-0.05469652
73	0x3d4c032a	0.049807705
74	0x3cf3badc	0.029752187
75	0xbcd8b1bb	-0.026451936
76	0xbd0edd2d	-0.0348789
77	0x3afee880	0.0019447953
78	0x3d027688	0.03185132
79	0xbd24521c	-0.040117368
80	0xbcacf518	-0.021112964
81	0x3cbf8c4c	0.023382328
82	0xbd13b0f0	-0.036057413
83	0xbbcbf838	-0.0062246583
84	0xbd2cab18	-0.042155355
85	0x3d546082	0.05184985
86	0x3cf6da0c	0.03013327
87	0xbd53a553	-0.051671337
88	0xbcfcd6b4	-0.030864097
89	0x3ca2557c	0.019816153
90	0x3b48c840	0.0030636936
91	0x3c72b860	0.014814466
92	0xbd3b517e	-0.045732014
93	0xbcf53401	-0.029932024
94	0x3ccfc9a0	0.025364697
95	0xbd2e97b8	-0.04262516
96	0xbc401d78	-0.011725776
97	0x3cc9625c	0.024583034
98	0x3cedae9c	0.029013924
99	0x3b63ca80	0.003475815
100	0x3c84c130	0.0162054
101	0x3ccbb690	0.024867326
102	0xbbd5ff70	-0.0065306947
103	0xbc7a4028	-0.015274085
104	0x3d2edb6e	0.042689733
105	0x3d5f3540	0.054494143
106	0x3cd41f20	0.025893748
107	0xbcc82f3e	-0.02443659
108	0xbd472bcd	-0.048625756
109	0xbd620018	-0.05517587
110	0x39cac080	0.00038671866
111	0xbcafb488	-0.021448389
112	0xbc667aa0	-0.014067322
113	0xbc00cbe4	-0.007861111
114	0x3d588b00	0.052866936
115	0x3d5909d8	0.052987903
116	0xbbab43d0	-0.0052265897
117	0xbc898336	-0.016786199
118	0x3cde6554	0.027147926
119	0xbb922bc0	-0.004460782
120	0xbd59ded6	-0.05319103
121	0x3c954698	0.018222138
122	0x3d5b356a	0.053517736
123	0xbd358040	-0.04431176
124	0xbc45cf14	-0.012073297
125	0x3c46a020	0.012123138
126	0xbd3a7483	-0.04552127
127	0xbd4409b9	-0.047860835
128	0x3d2aefb0	0.04173249
129	0xbca22828	-0.019794539
130	0x3d059102	0.032608993
131	0x3ba3c1e8	0.0049974807
132	0x3c5f7760	0.013639301
133	0xbd189a2a	-0.037256397
134	0xbc439c44	-0.011939112
135	0x3d170ae2	0.036875613
136	0x3cd20b14	0.025640048
137	0xbc84676c	-0.016162597
138	0x3be15820	0.0068769604
139	0x3d2f4e62	0.04279936
140	0xbd48a038	-0.04898092
141	0x3d1314a4	0.035908356
142	0xbc89a1a0	-0.016800702
143	0xbc3a5354	-0.011372406
144	0x3cd9eb20	0.026601374
145	0xbd3e38ba	-0.046440817
146	0xbc0a5d1c	-0.008445051
147	0x3d5acfe2	0.05342091
148	0x3ca4d18c	0.020119451
149	0xbca955a2	-0.020670716
150	0xbc478030	-0.012176558
151	0x3d3492f8	0.044085473
152	0x3cad040c	0.021120094
153	0x3d1b3706	0.03789427
154	0xbd137298	-0.035997957
155	0x3c840708	0.016116634
156	0x3c23b930	0.009992883
157	0x3c1fa770	0.00974451
158	0x3d549d16	0.05190762
159	0x3cfd8194	0.030945577
160	0x3d1dd4fc	0.038533196
161	0x3cc91470	0.024545878
162	0x3cc077c0	0.023494601
163	0xbc1f4ffc	-0.00972366
164	0xbd4a1699	-0.049337957
165	0xbd416baf	-0.047221836
166	0xbd0e9c48	-0.03481701
167	0xbd143f49	-0.036193166
168	0x3cd794bc	0.02631604
169	0x3c8dc3a8	0.01730521
170	0xbc829436	-0.015939813
171	0xbd2e6c2e	-0.042583637
172	0x3d616a8c	0.05503325
173	0x3d2c1006	0.04200747
174	0x3cd9ca88	0.026585832
175	0x3d62a554	0.05533345
176	0xbcf3d07f	-0.029762505
177	0xbd02654f	-0.031834897
178	0xbd06071c	-0.032721624
179	0xbb315e80	-0.0027064383
180	0xbd4a1fa7	-0.049346592
181	0x3d3543ca	0.0442541
182	0x3abc7d00	0.0014380515
183	0x3ce40e28	0.027838781
184	0xbcfb7db9	-0.030699598
185	0xbbbcb6d0	-0.0057590976
186	0x3bf0ee00	0.0073525906
187	0xbc7aaf58	-0.015300594
188	0x3d5820c2	0.052765615
189	0xbcd13960	-0.025540054
190	0x3c8e30d8	0.017357275
191	0xbd1b5c44	-0.03792979
192	0xbbd8d0f8	-0.006616708
193	0xbc72fc74	-0.014830697
194	0x3cc595ac	0.02411922
195	0x3d1ff296	0.039049707
196	0x3c5ec090	0.013595715
197	0xbba65130	-0.0050755963
198	0xbc6a8820	-0.014314681
199	0x3d338596	0.04382857
200	0xbc586a44	-0.013208929
201	0x3d254cba	0.040356375
202	0xbccbc15c	-0.024872474
203	0x3d3cb65e	0.046072356
204	0x3d640e82	0.0556779
205	0x3d1cf54e	0.03831988
206	0x3d035398	0.032062143
207	0x3caa72c8	0.020806685
208	0xbce12bd5	-0.027486721
209	0x3a2ee540	0.0006671734
210	0x3c9daf84	0.019248731
211	0xbc6f5278	-0.014607064
212	0x3c2430a0	0.010021359
213	0x3d061ab2	0.032740302
214	0xbd5426bc	-0.051794752
215	0xbd50697d	-0.05088185
216	0xbd090262	-0.033449538
217	0x3bdf7390	0.006819196
218	0xbc29c4a4	-0.010361824
219	0x3c455e20	0.012046367
220	0xbc59cd00	-0.013293505
221	0xbd15e508	-0.036595374
222	0x3bf334d0	0.007422067
223	0x3d1b14a8	0.037861496
224	0xbd097bdf	-0.0335654
225	0x3d48b668	0.04900208
226	0x3c6169e0	0.013758153
227	0x3d61c678	0.055120915
228	0xbd51dfd0	-0.051238835
229	0xbd5b2d03	-0.053509723
230	0x3c9b5d68	0.018965438
231	0xbd559b6a	-0.052150168
232	0xbd3ba491	-0.04581124
233	0x3ce8dbbc	0.02842509
234	0x3cde4d10	0.027136356
235	0xbd50a531	-0.05093879
236	0x3d24c3aa	0.040225662
237	0xbc321794	-0.010869879
238	0x3d29fe88	0.041502506
239	0xbd065f47	-0.032805707
240	0xbd59b94c	-0.05315523
241	0xbd17ca38	-0.037058085
242	0xbc0dfd30	-0.008666322
243	0xbd64ae69	-0.055830393
244	0xbb799d70	-0.0038088225
245	0xbce48dbd	-0.027899617
246	0xbc552d10	-0.013011232
247	0xb7056000	-7.9497695e-06
248	0x3b4d9e10	0.003137473
249	0xbd5ffa48	-0.054682046
250	0x3ceb8e94	0.02875451
251	0xbd0c564e	-0.034261994
252	0x3d0b8ad8	0.03406796
253	0x3d51d046	0.051224016
254	0xbc98b8a0	-0.018642724
255	0x3bcd96b8	0.0062740706

fc1.bias f4 [32]
0	0xbba961c8	-0.005169127
1	0xbc82351e	-0.015894469
2	0xbd2550c6	-0.040360235
3	0xbd27cfeb	-0.04096977
4	0xbcbcca9c	-0.02304583
5	0xbd14f784	-0.03636886
6	0xbd1e45ac	-0.038640663
7	0xbd1dfc7a	-0.03857086
8	0x3c7cd50f	0.0154316565
9	0x3c91f4d4	0.017816938
10	0xbd2069f4	-0.039163545
11	0x3bf1a996	0.0073749525
12	0xbcf3cdfb	-0.029761305
13	0x3d63ba34	0.0555975
14	0xbc09ab10	-0.008402601
15	0xbcda326d	-0.026635373
16	0x3c80579c	0.015666775
17	0xbccb13c5	-0.0247897
18	0xbd5c2188	-0.053742915
19	0xbd5d7ef2	-0.054076143
20	0x3d10dad0	0.035364926
21	0xbd5d3bd9	-0.054012153
22	0x3ae73f35	0.0017642739
23	0xbd145d18	-0.036221594
24	0xbcf4c04d	-0.029876852
25	0x3bb4aa00	0.0055134296
26	0x3ce6ffc6	0.028198134
27	0x3ccb8cfc	0.0248475
28	0x3c8d8370	0.017274588
29	0x3d2d779a	0.04235039
30	0x3c8edcd8	0.01743929
31	0x3d3f0927	0.046639588

fc2.weight f4 [32, 32]
0	0x3e169fc4	0.14709383
1	0xbe292776	-0.1651896
2	0xbd05d1b5	-0.032670695
3	0x3d088635	0.033331115
4	0x3dfefe5a	0.124508575
5	0xbd2ab9a9	-0.041680966
6	0x3e0d78bc	0.13815588
7	0x3da92d04	0.08260539
8	0xbe0662d4	-0.13123637
9	0x3e072aa2	0.13199857
10	0x3da10e5c	0.07864067
11	0xbb821685	-0.0039699697
12	0xbdba4614	-0.090953976
13	0xbd4ba715	-0.04971989
14	0x3df8fcbe	0.12157582
15	0xbdc4ca08	-0.09608847
16	0xbe20417c	-0.1564998
17	0xbe2cfd1e	-0.16893432
18	0x3c54d2a0	0.01298967
19	0xbe2425fa	-0.16030112
20	0x3e2c247e	0.16810796
21	0xbda2e7d4	-0.07954374
22	0x3d97e16e	0.07416044
23	0xbe19c9f6	-0.15018448
24	0xbdf812a4	-0.121129304
25	0xbd179bb3	-0.03701372
26	0xbdb88648	-0.09009987
27	0xbc2945ca	-0.01033158
28	0xbd1ac9c7	-0.037790086
29	0x3cdc0b68	0.026860908
30	0xbe01c17c	-0.12671465
31	0x3e2260b8	0.15857208
32	0x3e013ba0	0.12620401
33	0x3d8c4dba	0.06850763
34	0x3de02df4	0.10946265
35	0xbc1e5270	-0.009663209
36	0x3e204010	0.15649438
37	0x3b94ec60	0.0045447797
38	0xbd974ce2	-0.07387711
39	0xbcfc6523	-0.030809944
40	0x3d671ac3	0.056422006
41	0xbe141b6c	-0.14463586
42	0xbe1d80e8	-0.15381205
43	0xbe2b5fd8	-0.1673578
44	0x3e03f8ca	0.12887874
45	0xbdb7a5b8	-0.08967155
46	0xbd344cda	-0.044018604
47	0x3e27ce84	0.16387373
48	0xbcaf76f3	-0.021419024
49	0xbd1b5742	-0.037925012
50	0x3d85abde	0.06526922
51	0xbe017c9c	-0.12645191
52	0x3e32e2fa	0.17469397
53	0x3e0fcb1a	0.14042321
54	0xbdb2cb0e	-0.08730136
55	0xbd7e14bc	-0.062031493
56	0x3e19b706	0.15011224
57	0xbdb93b9e	-0.09044574
58	0x3dce74e2	0.100808874
59	0x3d8877fa	0.06663509
60	0x3cba811b	0.02276664
61	0xbe14022e	-0.14453956
62	0x3d1823c6	0.03714349
63	0x3d420596	0.04736861
64	0x3e0d2fe5	0.13787802
65	0x3da21114	0.07913414
66	0x3e2567d3	0.16152887
67	0x3e24ae87	0.16082202
68	0xbdc98800	-0.09840393
69	0x3e0816e3	0.1328998
70	0x3dfc4716	0.12318246
71	0xbe2d2dff	-0.16912077
72	0xbe1bd58b	-0.15218179
73	0x3d330087	0.043701675
74	0xbe120bc7	-0.14262305
75	0xbc8f76c3	-0.017512685
76	0xbdfc3720	-0.12315202
77	0x3dc8f014	0.09811416
78	0xbdc442e2	-0.095830694
79	0x3e032da9	0.12810387
80	0x3d1d3ac9	0.03838614
81	0xbddd2630	-0.10798299
82	0xbbd49869	-0.0064878953
83	0x3d89537e	0.06705378
84	0xbe248aab	-0.16068523
85	0x3ac40fbf	0.0014958306
86	0x3da04d6a	0.078272656
87	0x3ca786d5	0.020450035
88	0xbe28e239	-0.16492547
89	0xbd3ae54f	-0.045628842
90	0xbe207cfb	-0.15672676
91	0x3e138331	0.14405514
92	0xbd03d97d	-0.032189835
93	0x3deb5a10	0.114917874
94	0x3e2de1cf	0.1698067
95	0xbda92378	-0.08258718
96	0xbe0ef1e8	-0.13959467
97	0xbcdf8853	-0.027286684
98	0x3e2bbdf2	0.16771677
99	0xbde35f23	-0.1110213
100	0xbcda9619	-0.0266829
101	0x3e143d2c	0.1447646
102	0x3d7b4d3f	0.061352964
103	0xbdfd36ed	-0.12363992
104	0xbe001765	-0.12508924
105	0xbe14025a	-0.14454022
106	0x3d7775f7	0.060415234
107	0x3d861f73	0.06548967
108	0xbb0ce793	-0.0021500334
109	0x3b4364eb	0.002981479
110	0x3a9fd27e	0.0012193469
111	0x3d0b895f	0.034066554
112	0x3c859b97	0.016309543
113	0xbe2506b2	-0.16115835
114	0xbc54ddad	-0.012992305
115	0x3d75a335	0.0599701
116	0xbcedf22b	-0.029046139
117	0x3e08bc28	0.13353026
118	0xbdaf30c2	-0.08554222
119	0xbe08562c	-0.13314122
120	0xbe0c74e0	-0.1371646
121	0xbc099cdb	-0.008399214
122	0x3dedd191	0.11612237
123	0xbe0f93b2	-0.14021185
124	0x3e2c5806	0.16830453
125	0x3e21f6d2	0.1581681
126	0x3d909773	0.07060137
127	0xbdca9695	-0.098920025
128	0xbd8821ba	-0.06647058
129	0xbe063913	-0.1310771
130	0xbdcfa016	-0.10137956
131	0xbda93474	-0.08261958
132	0xbd48ec6b	-0.04905359
133	0x3c834b79	0.0160272
134	0x3d0d8e97	0.034559812
135	0x3e2010eb	0.15631454
136	0x3e109278	0.14118373
137	0xbd20f739	-0.03929827
138	0x3dcd5994	0.10026851
139	0x3dac0238	0.08398861
140	0x3d591ad7	0.053004112
141	0xbe216b4f	-0.15763591
142	0x3dd78580	0.1052351
143	0xbdbdbdc6	-0.09264712
144	0xbddb2d0e	-0.10701953
145	0x3caafd99	0.020872878
146	0xbe09edc3	-0.13469605
147	0x3caa9051	0.020820769
148	0x3de92624	0.11384228
149	0x3e2f7c41	0.17137243
150	0x3c9b1735	0.018931964
151	0x3e260291	0.16211917
152	0x3dd9e6e8	0.10639745
153	0xbe0bdef3	-0.13659267
154	0x3e2b6b1b	0.16740076
155	0xbe056f1d	-0.13030668
156	0xbe05763d	-0.13033386
157	0x3cf21c99	0.029554652
158	0x3dab6360	0.08368564
159	0xbe000a05	-0.12503822
160	0x3e18d232	0.14923933
161	0xbda676c5	-0.08128122
162	0x3e2a6ca2	0.16643003
163	0xbd9d2edd	-0.07674954
164	0x3d298125	0.041382927
165	0xbdfbb28d	-0.12289915
166	0xbd54c5bd	-0.05194639
167	0x3e21dece	0.1580765
168	0x3ce3ec96	0.027822774
169	0x3e206482	0.1566334
170	0x3bd6c59f	0.00655432
171	0x3d95f60f	0.073223226
172	0xbdbcd4cd	-0.09220276
173	0x3e246950	0.16055799
174	0x3db36071	0.08758629
175	0xbdaa93f2	-0.083289996
176	0x3dd0575d	0.10172913
177	0xbe0c9298	-0.13727796
178	0x3d4eaa57	0.050455417
179	0xbdad7cd5	-0.084710754
180	0x3cdacf23	0.026710099
181	0x3d708f17	0.05873021
182	0xbe12a868	-0.14322054
183	0x3e2bbd02	0.1677132
184	0x3d0c504d	0.03425627
185	0x3d001dd9	0.031278465
186	0xbc9fabed	-0.01949116
187	0xbd3668c5	-0.04453351
188	0xbde2ba0f	-0.11070644
189	0xbe08e3f0	-0.13368201
190	0xbe037d42	-0.12840751
191	0x3daf0e7d	0.08547685
192	0x3d410f70	0.047133863
193	0x3c236a94	0.009974141
194	0xbddb6592	-0.107127324
195	0x3d31ccfa	0.04340837
196	0x3d789fd8	0.060699314
197	0xbd063398	-0.032764047
198	0x3e0535cb	0.13008802
199	0x3e17a7c7	0.14810096
200	0xbddb4072	-0.10705651
201	0xbe029cc9	-0.12755121
202	0x3d8dc52c	0.06922373
203	0xbe21250f	-0.15736793
204	0x3daa724e	0.08322583
205	0x3dae864e	0.0852171
206	0xbe03b2a5	-0.12861116
207	0x3e0acb27	0.13554059
208	0xbe1f08ef	-0.15530752
209	0x3d7a89c0	0.061166525
210	0x3dbb245e	0.09137796
211	0x3da9fb28	0.082998574
212	0xbdbcb03a	-0.092133
213	0xbbdc5f70	-0.006725244
214	0x3da9a8e4	0.082841665
215	0xbd934220	-0.07190347
216	0xbddef444	-0.10886434
217	0x3e0ee067	0.1395279
218	0xbc15f02c	-0.0091515
219	0x3dc11e52	0.09429611
220	0x3e2c026b	0.16797797
221	0x3d248568	0.04016629
222	0xbd9aab8a	-0.0755225
223	0x3e0c9b2d	0.1373107
224	0xbdebcabc	-0.11513278
225	0x3e234e82	0.15947917
226	0x3e1438f4	0.14474851
227	0xbdb432f4	-0.08798781
228	0xbd88bfb4	-0.066771895
229	0x3da17602	0.07883836
230	0x3c5d46eb	0.013505678
231	0x3dd45c9a	0.10369225
232	0x3dc3a6fe	0.095533356
233	0x3e1cd900	0.15317154
234	0x3dd57252	0.104221955
235	0x3ce84fd3	0.028358376
236	0xbdb34ed4	-0.0875527
237	0xbe17ed38	-0.14836586
238	0x3e3589aa	0.17728296
239	0xbe149ade	-0.14512202
240	0x3e1b540e	0.15168783
241	0xbdb03b08	-0.08605009
242	0x3c0a41a9	0.008438506
243	0x3dfbef4a	0.123015
244	0x3df7e62e	0.1210445
245	0xbdc86156	-0.0978419
246	0x3dac01bb	0.083987676
247	0x3e0744b6	0.13209805
248	0x3c642ba7	0.013926423
249	0x3e035c24	0.12828118
250	0xbe137468	-0.14399874
251	0xbe1db714	-0.1540187
252	0x3de8fbb6	0.11376135
253	0x3c5d5317	0.01350858
254	0xbe00f858	-0.12594736
255	0xbe177db2	-0.14794043

fc2.bias f4 [32]
0	0x3dcb35d8	0.09922379
1	0x3df45bb4	0.119315535
2	0x3e204bed	0.15653963
3	0xbe1bafcc	-0.1520378
4	0xbe300c91	-0.17192294
5	0xbde6197d	-0.1123533
6	0xbd2fd5f4	-0.04292865
7	0x3d19ba31	0.03753108
8	0x3dbb8973	0.09157076
9	0xbd9be82f	-0.07612645
10	0xbdcfce2b	-0.10146745
11	0x3d9113db	0.07083865
12	0x3c862478	0.016374812
13	0xbceb1bbe	-0.028699752
14	0xbe28c81b	-0.16482584
15	0x3dd23407	0.1026383
16	0x3db36af8	0.08760637
17	0x3ddc3434	0.107521445
18	0xbdba4a86	-0.090962455
19	0xbdf9c13d	-0.121950604
20	0x3bac03d6	0.0052494807
21	0xbb8338ff	-0.004004597
22	0x3e0a8e29	0.13530792
23	0x3d996c7d	0.074913956
24	0xbe2529d6	-0.1612924
25	0x3dffa4dd	0.12482617
26	0x3dd4035b	0.103522025
27	0xbda6b1bc	-0.08139369
28	0xbc81a2f8	-0.01582478
29	0xbe00d625	-0.1258169
30	0x3d46f007	0.04856875
31	0xbe332ec9	-0.17498316

fc3.weight f4 [9, 32]
0	0x3d1227df	0.035682555
1	0xbdec7670	-0.11546028
2	0xbe01bcab	-0.12669627
3	0x3e08b1c7	0.13349067
4	0xbe24246f	-0.16029523
5	0xbd9760c8	-0.073915064
6	0x3de5bb1f	0.11217331
7	0x3e104dfe	0.14092252
8	0xbcbf903e	-0.02338421
9	0xbdfd33a3	-0.123633645
10	0x3e0c5bf5	0.13706954
11	0xbd821000	-0.06350708
12	0xbc14118b	-0.009037386
13	0x3da79060	0.08181834
14	0x3d8c8aca	0.068624094
15	0x3d04e426	0.03244414
16	0x3d9b8c76	0.0759515
17	0xbd3b56d1	-0.04573709
18	0x3e0cbb03	0.13743214
19	0xbcbc24ea	-0.02296682
20	0xbe14a9b9	-0.14517869
21	0x3c93d545	0.01804603
22	0xbd011662	-0.031515487
23	0xbe264f89	-0.16241278
24	0xbe059e9c	-0.13048786
25	0xbcd01954	-0.025402702
26	0x3d56b503	0.05241872
27	0xbd1a994c	-0.03774385
28	0x3e1d46ab	0.15358989
29	0x3cea1b08	0.028577343
30	0x3d585a53	0.052820515
31	0x3e2c38bd	0.16818519
32	0xbd338942	-0.04383207
33	0xbddc9f0e	-0.10772525
34	0xbd87fa0e	-0.06639491
35	0xbd144f5f	-0.036208507
36	0xbe304ce3	-0.1721683
37	0x3d8ccdc5	0.06875185
38	0x3cc861c4	0.02446068
39	0x3e21e137	0.15808569
40	0x3e068342	0.13136008
41	0x3cde9596	0.027170938
42	0x3d119602	0.03554345
43	0x3d2ea283	0.042635452
44	0x3b70e5ed	0.003675814
45	0x3dd58718	0.10426158
46	0xbe03d8d5	-0.12875684
47	0xbdf3d620	-0.119060755
48	0x3bb7c7c1	0.0056085293
49	0x3d044272	0.03228993
50	0xbdb0ce36	-0.086330816
51	0xbdc64dae	-0.09682785
52	0xbe0a928a	-0.13532463
53	0xbc41be65	-0.011825179
54	0x3e239247	0.15973769
55	0xbe13a043	-0.14416604
56	0x3d8a3b83	0.06749632
57	0x3d25cc71	0.040478174
58	0x3b3b02e8	0.0028535668
59	0x3d187cec	0.03722851
60	0x3deacc20	0.11464715
61	0xbd518045	-0.051147718
62	0x3e1acde0	0.15117598
63	0xbe32c452	-0.17457703
64	0x3a2b817e	0.0006542428
65	0x3dc12c86	0.0943232
66	0xbc7b1987	-0.01532591
67	0xbe2ca4bb	-0.16859715
68	0x3d86fe74	0.06591502
69	0x3d65dd8f	0.056119498
70	0xbdaac37f	-0.08338069
71	0x3e2029a2	0.15640882
72	0x3e20ba1f	0.15696
73	0x3d0ec4d5	0.034855682
74	0xbd9c755a	-0.076395705
75	0xbe22db37	-0.15903936
76	0xbddd4364	-0.10803869
77	0x3e00e38a	0.125868
78	0x3e2f7e20	0.17137957
79	0xbe01eaec	-0.12687272
80	0x3dbccb0f	0.09218418
81	0xbd8e603b	-0.06951948
82	0x3bb3f11d	0.0054913894
83	0xbdb0c61f	-0.086315386
84	0x3d76b3f8	0.060230225
85	0xbd8dd5d1	-0.06925548
86	0x3bb51d30	0.005527161
87	0xbdda83c5	-0.10669664
88	0x3e36fb6b	0.17869346
89	0xbaa3dfc5	-0.0012502602
90	0x3e102fa7	0.14080678
91	0x3d0f66dd	0.035010207
92	0xbe15a23e	-0.14612672
93	0x3dbad346	0.091223285
94	0x3be1ee5d	0.00689487
95	0x3dfaaa8a	0.12239559
96	0xbe1263f0	-0.14295936
97	0x3e1c2f91	0.1525252
98	0xbd7c60d2	-0.061615773
99	0x3d30e2ee	0.043185167
100	0xbe0408a1	-0.12893917
101	0x3d0a8066	0.033813857
102	0xbe05e601	-0.13076021
103	0xbddc1539	-0.107462354
104	0xbd844b8f	-0.06459724
105	0x3d964cc4	0.07338861
106	0x3e32062b	0.17385165
107	0xbd3b55af	-0.04573601
108	0x3e041ffe	0.12902829
109	0x3d7504a0	0.059818864
110	0x3df71f8f	0.12066566
111	0x3daf22bb	0.08551546
112	0x3ba41141	0.0050069396
113	0xbcc72ab8	-0.024312362
114	0x3e11448e	0.14186308
115	0x3e0c108e	0.1367819
116	0x3e2c4679	0.16823758
117	0x3cb8e45c	0.022569828
118	0xbb2e03a6	-0.0026552468
119	0xbbaf8aba	-0.0053571137
120	0xbe10dd9c	-0.14147037
121	0x3dbcb91a	0.09214993
122	0x3d878da0	0.0661881
123	0x3d1a200c	0.03762822
124	0xbe24a9d4	-0.1608041
125	0x3e2b3238	0.16718376
126	0x3bee816a	0.007278611
127	0x3dad63c2	0.08466293
128	0x3d608305	0.05481245
129	0xbe150ad0	-0.14554906
130	0x3de6dcd5	0.11272589
131	0xbe012049	-0.12609972
132	0x3cff07bd	0.03113162
133	0xbd79797f	-0.060906883
134	0xbd8b31e6	-0.06796627
135	0x3c350d48	0.01105053
136	0xbe2381b0	-0.1596744
137	0xbdb58211	-0.08862699
138	0x3d06e1f2	0.032930322
139	0xbd5a7ebd	-0.053343523
140	0xbd041600	-0.032247543
141	0xbe08d427	-0.1336218
142	0xbdc1adcf	-0.094569795
143	0xbdda0017	-0.106445484
144	0xbe066a00	-0.13126373
145	0xbd66186b	-0.05617563
146	0xbca89d0f	-0.020582704
147	0xbde32e12	-0.110927716
148	0xbd1e1658	-0.038595527
149	0x3dba4b2a	0.09096368
150	0xbdb9bc0c	-0.0906907
151	0xbc19bc38	-0.009383254
152	0x3e1fddf5	0.15612014
153	0x3e23c764	0.1599403
154	0xbcf5dcc2	-0.030012492
155	0xbd864e2e	-0.0655788
156	0x3d1d8949	0.038461003
157	0x3e139a94	0.14414436
158	0xbd9392d8	-0.072057426
159	0x3d756e06	0.05991938
160	0x3cfbedeb	0.030753097
161	0xbcc30fb6	-0.023811202
162	0xbdb57948	-0.08861023
163	0xbd66c3a5	-0.056338925
164	0xbe24efac	-0.16107053
165	0xbc201669	-0.009770968
166	0x3dd89744	0.10575727
167	0xbe2da7c1	-0.16958524
168	0x3bebb783	0.007193507
169	0x3d90e3ed	0.070747234
170	0x3db40497	0.08789938
171	0x3dfe4d65	0.124171056
172	0x3e172341	0.14759542
173	0xbda88dbb	-0.08230158
174	0x3dccc561	0.099985845
175	0xbda1a423	-0.07892635
176	0x3d8f1a19	0.069873996
177	0xbe259681	-0.16170694
178	0xbd2d9b4a	-0.042384423
179	0x3b64a173	0.003488627
180	0x3e1cd3b1	0.15315129
181	0x3e31aa6f	0.17350172
182	0xbd1e85d7	-0.03870186
183	0x3e0f5e51	0.14000823
184	0xbc52cbfb	-0.012866016
185	0x3a8066af	0.0009796227
186	0x3d44846f	0.04797786
187	0x3e1473d2	0.14497307
188	0xbd112e52	-0.035444565
189	0xbbf9e2d4	-0.007625917
190	0xbe248425	-0.16066034
191	0xbe19c52a	-0.15016618
192	0x3c8f1307	0.017465128
193	0xbd6a2a90	-0.057169497
194	0xbd3c7ccb	-0.04601745
195	0xbdba0e47	-0.090847544
196	0x3df0dc28	0.117607415
197	0xbdf38e18	-0.118923366
198	0xbc940c93	-0.018072402
199	0xbac94cab	-0.0015357932
200	0x3e1eda0d	0.15512867
201	0xbe0d5880	-0.13803291
202	0x3c9f2d06	0.019430649
203	0xbd317faa	-0.04333464
204	0x3e0aa56b	0.13539664
205	0x3d5c7991	0.053826872
206	0x3d4167da	0.04721818
207	0x3df766b4	0.12080136
208	0xbd697587	-0.05699685
209	0xbe1b7936	-0.15182957
210	0xbd91fde8	-0.07128507
211	0x3dba008e	0.09082137
212	0xbe0961c8	-0.13416207
213	0x3ddd35dc	0.108012885
214	0x3d88128e	0.06644164
215	0x3d97e9ed	0.07417665
216	0xbdde0874	-0.10841456
217	0x3dfb79c1	0.12279082
218	0xbdc00570	-0.09376037
219	0xbe0412af	-0.12897752
220	0xbcb5b98b	-0.0221832
221	0x3e13ed08	0.14445889
222	0xbde4cfce	-0.11172448
223	0xbe1efda5	-0.15526445
224	0x3e0ac84e	0.13552973
225	0x3d4ea5cb	0.05045108
226	0x3c8ebb27	0.017423226
227	0xbd6fa05d	-0.058502544
228	0x3dab3d7f	0.08361339
229	0xbc5f4a69	-0.013628581
230	0x3d639269	0.05555955
231	0xbe064b40	-0.13114643
232	0xbb8d388a	-0.0043097185
233	0x3d986056	0.074402496
234	0x3b7b7c15	0.003837352
235	0xbdfa6877	-0.12226956
236	0xbd9980e4	-0.07495287
237	0x3d2a2486	0.041538738
238	0x3e255c2c	0.16148442
239	0xbd82c073	-0.06384363
240	0x3ce25a0e	0.027630832
241	0x3d825c07	0.06365209
242	0xbe15792b	-0.14597003
243	0x3e13c591	0.14430834
244	0x3e1b298c	0.15152568
245	0x3d42da7e	0.04757165
246	0x3e34a7c8	0.17642128
247	0xbd7bd17d	-0.06147908
248	0xbe0e0a46	-0.13871107
249	0x3dddb53a	0.10825582
250	0x3ca49907	0.0200925
251	0x3d8eb28c	0.06967649
252	0x3da0f8e3	0.078599714
253	0xbd931ef0	-0.07183635
254	0xbd1f05f7	-0.038824048
255	0x3d218f8d	0.03944354

fc3.bias f4 [9]
0	0xbd25de5f	-0.040495273
1	0x3df1ae79	0.11800856
2	0xbd2e96cb	-0.042624276
3	0xbd812140	-0.0630517
4	0x3c93fca8	0.018064812
5	0xbd44ee17	-0.048078623
6	0xbdf768f4	-0.12080565
7	0xbcfb96d0	-0.030711561
8	0x3e071400	0.13191223

params f4 [32, 320]
0	0xbd57b3d1	-0.05266172
1	0xbc33b370	-0.010968074
2	0xbcdbf507	-0.026850237
3	0xbc7448dc	-0.014909949
4	0xbd4a4655	-0.04938348
5	0x3cb7c4e8	0.02243276
6	0xbd4d40bf	-0.050110575
7	0xbb6972d0	-0.0035621412
8	0x3c9f3018	0.019432113
9	0xbc9a5ce6	-0.018843126
10	0x3d01ec54	0.03171952
11	0x3be70960	0.007050678
12	0x3cfbbbd8	0.03072922
13	0x3d12e916	0.03586682
14	0xbcca28bf	-0.024677632
15	0x3ca66d90	0.020315915
16	0xbcc62174	-0.024185874
17	0x3c8f8c60	0.01752299
18	0xbcef4596	-0.029207986
19	0x3cd3d4fc	0.025858395
20	0x3c396b18	0.011317037
21	0xbcb336dc	-0.021876745
22	0xbce09ef2	-0.027419541
23	0x3c6cf6a0	0.014463097
24	0x3d55a320	0.05215752
25	0x3cdbc498	0.026827142
26	0xbbb0e290	-0.005398102
27	0xbb31d2e0	-0.0027133748
28	0x3d022558	0.031773895
29	0xbd1f2362	-0.038852103
30	0x3c983e6c	0.018584453
31	0xbc97be10	-0.018523246
32	0x3d047ac8	0.032343656
33	0xbca35be8	-0.019941285
34	0x3b3527a0	0.0027642027
35	0x3c9aa3dc	0.018876962
36	0x3d1d5b72	0.038417287
37	0xbc069f00	-0.0082166195
38	0x3d50e3f8	0.050998658
39	0xbd41b8d6	-0.047295414
40	0xbc23601c	-0.009971645
41	0xbd6453a2	-0.05574382
42	0x3b97bec0	0.0046308935
43	0x3c81f4cc	0.015863799
44	0xbcb96142	-0.022629384
45	0x3cbe3228	0.023217276
46	0xbc147980	-0.009062171
47	0xbd46f99d	-0.048577894
48	0x3d2fca58	0.04291758
49	0x3d0d2d34	0.034466937
50	0x3ce78a98	0.028264329
51	0x3d36a4b4	0.044590667
52	0x3ca8656c	0.020556174
53	0x3cf37c58	0.029722378
54	0x3d3e027c	0.046389088
55	0xbc388960	-0.0112632215
56	0xbd3293dd	-0.043598045
57	0xbce136f5	-0.027492026
58	0xbbf486c8	-0.0074623562
59	0xbbc949f8	-0.006142851
60	0xb9c6a400	-0.00037887692
61	0x3d0337da	0.032035686
62	0x3c92e7bc	0.017932765
63	0xbd294d10	-0.04133326
64	0xbc8991d6	-0.016793173
65	0xbc5776b0	-0.013150856
66	0x3d0b5b36	0.034022532
67	0xbca6222e	-0.02027997
68	0xbcbf990c	-0.023388408
69	0xbc1341fc	-0.0089879
70	0xbc68fa0c	-0.014219772
71	0xbc6181fc	-0.013763901
72	0xbd600975	-0.05469652
73	0x3d4c032a	0.049807705
74	0x3cf3badc	0.029752187
75	0xbcd8b1bb	-0.026451936
76	0xbd0edd2d	-0.0348789
77	0x3afee880	0.0019447953
78	0x3d027688	0.03185132
79	0xbd24521c	-0.040117368
80	0xbcacf518	-0.021112964
81	0x3cbf8c4c	0.023382328
82	0xbd13b0f0	-0.036057413
83	0xbbcbf838	-0.0062246583
84	0xbd2cab18	-0.042155355
85	0x3d546082	0.05184985
86	0x3cf6da0c	0.03013327
87	0xbd53a553	-0.051671337
88	0xbcfcd6b4	-0.030864097
89	0x3ca2557c	0.019816153
90	0x3b48c840	0.0030636936
91	0x3c72b860	0.014814466
92	0xbd3b517e	-0.045732014
93	0xbcf53401	-0.029932024
94	0x3ccfc9a0	0.025364697
95	0xbd2e97b8	-0.04262516
96	0xbc401d78	-0.011725776
97	0x3cc9625c	0.024583034
98	0x3cedae9c	0.029013924
99	0x3b63ca80	0.003475815
100	0x3c84c130	0.0162054
101	0x3ccbb690	0.024867326
102	0xbbd5ff70	-0.0065306947
103	0xbc7a4028	-0.015274085
104	0x3d2edb6e	0.042689733
105	0x3d5f3540	0.054494143
106	0x3cd41f20	0.025893748
107	0xbcc82f3e	-0.02443659
108	0xbd472bcd	-0.048625756
109	0xbd620018	-0.05517587
110	0x39cac080	0.00038671866
111	0xbcafb488	-0.021448389
112	0xbc667aa0	-0.014067322
113	0xbc00cbe4	-0.007861111
114	0x3d588b00	0.052866936
115	0x3d5909d8	0.052987903
116	0xbbab43d0	-0.0052265897
117	0xbc898336	-0.016786199
118	0x3cde6554	0.027147926
119	0xbb922bc0	-0.004460782
120	0xbd59ded6	-0.05319103
121	0x3c954698	0.018222138
122	0x3d5b356a	0.053517736
123	0xbd358040	-0.04431176
124	0xbc45cf14	-0.012073297
125	0x3c46a020	0.012123138
126	0xbd3a7483	-0.04552127
127	0xbd4409b9	-0.047860835
128	0x3d2aefb0	0.04173249
129	0xbca22828	-0.019794539
130	0x3d059102	0.032608993
131	0x3ba3c1e8	0.0049974807
132	0x3c5f7760	0.013639301
133	0xbd189a2a	-0.037256397
134	0xbc439c44	-0.011939112
135	0x3d170ae2	0.036875613
136	0x3cd20b14	0.025640048
137	0xbc84676c	-0.016162597
138	0x3be15820	0.0068769604
139	0x3d2f4e62	0.04279936
140	0xbd48a038	-0.04898092
141	0x3d1314a4	0.035908356
142	0xbc89a1a0	-0.016800702
143	0xbc3a5354	-0.011372406
144	0x3cd9eb20	0.026601374
145	0xbd3e38ba	-0.046440817
146	0xbc0a5d1c	-0.008445051
147	0x3d5acfe2	0.05342091
148	0x3ca4d18c	0.020119451
149	0xbca955a2	-0.020670716
150	0xbc478030	-0.012176558
151	0x3d3492f8	0.044085473
152	0x3cad040c	0.021120094
153	0x3d1b3706	0.03789427
154	0xbd137298	-0.035997957
155	0x3c840708	0.016116634
156	0x3c23b930	0.009992883
157	0x3c1fa770	0.00974451
158	0x3d549d16	0.05190762
159	0x3cfd8194	0.030945577
160	0x3d1dd4fc	0.038533196
161	0x3cc91470	0.024545878
162	0x3cc077c0	0.023494601
163	0xbc1f4ffc	-0.00972366
164	0xbd4a1699	-0.049337957
165	0xbd416baf	-0.047221836
166	0xbd0e9c48	-0.03481701
167	0xbd143f49	-0.036193166
168	0x3cd794bc	0.02631604
169	0x3c8dc3a8	0.01730521
170	0xbc829436	-0.015939813
171	0xbd2e6c2e	-0.042583637
172	0x3d616a8c	0.05503325
173	0x3d2c1006	0.04200747
174	0x3cd9ca88	0.026585832
175	0x3d62a554	0.05533345
176	0xbcf3d07f	-0.029762505
177	0xbd02654f	-0.031834897
178	0xbd06071c	-0.032721624
179	0xbb315e80	-0.0027064383
180	0xbd4a1fa7	-0.049346592
181	0x3d3543ca	0.0442541
182	0x3abc7d00	0.0014380515
183	0x3ce40e28	0.027838781
184	0xbcfb7db9	-0.030699598
185	0xbbbcb6d0	-0.0057590976
186	0x3bf0ee00	0.0073525906
187	0xbc7aaf58	-0.015300594
188	0x3d5820c2	0.052765615
189	0xbcd13960	-0.025540054
190	0x3c8e30d8	0.017357275
191	0xbd1b5c44	-0.03792979
192	0xbbd8d0f8	-0.006616708
193	0xbc72fc74	-0.014830697
194	0x3cc595ac	0.02411922
195	0x3d1ff296	0.039049707
196	0x3c5ec090	0.013595715
197	0xbba65130	-0.0050755963
198	0xbc6a8820	-0.014314681
199	0x3d338596	0.04382857
200	0xbc586a44	-0.013208929
201	0x3d254cba	0.040356375
202	0xbccbc15c	-0.024872474
203	0x3d3cb65e	0.046072356
204	0x3d640e82	0.0556779
205	0x3d1cf54e	0.03831988
206	0x3d035398	0.032062143
207	0x3caa72c8	0.020806685
208	0xbce12bd5	-0.027486721
209	0x3a2ee540	0.0006671734
210	0x3c9daf84	0.019248731
211	0xbc6f5278	-0.014607064
212	0x3c2430a0	0.010021359
213	0x3d061ab2	0.032740302
214	0xbd5426bc	-0.051794752
215	0xbd50697d	-0.05088185
216	0xbd090262	-0.033449538
217	0x3bdf7390	0.006819196
218	0xbc29c4a4	-0.010361824
219	0x3c455e20	0.012046367
220	0xbc59cd00	-0.013293505
221	0xbd15e508	-0.036595374
222	0x3bf334d0	0.007422067
223	0x3d1b14a8	0.037861496
224	0xbd097bdf	-0.0335654
225	0x3d48b668	0.04900208
226	0x3c6169e0	0.013758153
227	0x3d61c678	0.055120915
228	0xbd51dfd0	-0.051238835
229	0xbd5b2d03	-0.053509723
230	0x3c9b5d68	0.018965438
231	0xbd559b6a	-0.052150168
232	0xbd3ba491	-0.04581124
233	0x3ce8dbbc	0.02842509
234	0x3cde4d10	0.027136356
235	0xbd50a531	-0.05093879
236	0x3d24c3aa	0.040225662
237	0xbc321794	-0.010869879
238	0x3d29fe88	0.041502506
239	0xbd065f47	-0.032805707
240	0xbd59b94c	-0.05315523
241	0xbd17ca38	-0.037058085
242	0xbc0dfd30	-0.008666322
243	0xbd64ae69	-0.055830393
244	0xbb799d70	-0.0038088225
245	0xbce48dbd	-0.027899617
246	0xbc552d10	-0.013011232
247	0xb7056000	-7.9497695e-06
248	0x3b4d9e10	0.003137473
249	0xbd5ffa48	-0.054682046
250	0x3ceb8e94	0.02875451
251	0xbd0c564e	-0.034261994
252	0x3d0b8ad8	0.03406796
253	0x3d51d046	0.051224016
254	0xbc98b8a0	-0.018642724
255	0x3bcd96b8	0.0062740706

params f4 [32]
0	0xbba961c8	-0.005169127
1	0xbc82351e	-0.015894469
2	0xbd2550c6	-0.040360235
3	0xbd27cfeb	-0.04096977
4	0xbcbcca9c	-0.02304583
5	0xbd14f784	-0.03636886
6	0xbd1e45ac	-0.038640663
7	0xbd1dfc7a	-0.03857086
8	0x3c7cd50f	0.0154316565
9	0x3c91f4d4	0.017816938
10	0xbd2069f4	-0.039163545
11	0x3bf1a996	0.0073749525
12	0xbcf3cdfb	-0.029761305
13	0x3d63ba34	0.0555975
14	0xbc09ab10	-0.008402601
15	0xbcda326d	-0.026635373
16	0x3c80579c	0.015666775
17	0xbccb13c5	-0.0247897
18	0xbd5c2188	-0.053742915
19	0xbd5d7ef2	-0.054076143
20	0x3d10dad0	0.035364926
21	0xbd5d3bd9	-0.054012153
22	0x3ae73f35	0.0017642739
23	0xbd145d18	-0.036221594
24	0xbcf4c04d	-0.029876852
25	0x3bb4aa00	0.0055134296
26	0x3ce6ffc6	0.028198134
27	0x3ccb8cfc	0.0248475
28	0x3c8d8370	0.017274588
29	0x3d2d779a	0.04235039
30	0x3c8edcd8	0.01743929
31	0x3d3f0927	0.046639588

params f4 [32, 32]
0	0x3e169fc4	0.14709383
1	0xbe292776	-0.1651896
2	0xbd05d1b5	-0.032670695
3	0x3d088635	0.033331115
4	0x3dfefe5a	0.124508575
5	0xbd2ab9a9	-0.041680966
6	0x3e0d78bc	0.13815588
7	0x3da92d04	0.08260539
8	0xbe0662d4	-0.13123637
9	0x3e072aa2	0.13199857
10	0x3da10e5c	0.07864067
11	0xbb821685	-0.0039699697
12	0xbdba4614	-0.090953976
13	0xbd4ba715	-0.04971989
14	0x3df8fcbe	0.12157582
15	0xbdc4ca08	-0.09608847
16	0xbe20417c	-0.1564998
17	0xbe2cfd1e	-0.16893432
18	0x3c54d2a0	0.01298967
19	0xbe2425fa	-0.16030112
20	0x3e2c247e	0.16810796
21	0xbda2e7d4	-0.07954374
22	0x3d97e16e	0.07416044
23	0xbe19c9f6	-0.15018448
24	0xbdf812a4	-0.121129304
25	0xbd179bb3	-0.03701372
26	0xbdb88648	-0.09009987
27	0xbc2945ca	-0.01033158
28	0xbd1ac9c7	-0.037790086
29	0x3cdc0b68	0.026860908
30	0xbe01c17c	-0.12671465
31	0x3e2260b8	0.15857208
32	0x3e013ba0	0.12620401
33	0x3d8c4dba	0.06850763
34	0x3de02df4	0.10946265
35	0xbc1e5270	-0.009663209
36	0x3e204010	0.15649438
37	0x3b94ec60	0.0045447797
38	0xbd974ce2	-0.07387711
39	0xbcfc6523	-0.030809944
40	0x3d671ac3	0.056422006
41	0xbe141b6c	-0.14463586
42	0xbe1d80e8	-0.15381205
43	0xbe2b5fd8	-0.1673578
44	0x3e03f8ca	0.12887874
45	0xbdb7a5b8	-0.08967155
46	0xbd344cda	-0.044018604
47	0x3e27ce84	0.16387373
48	0xbcaf76f3	-0.021419024
49	0xbd1b5742	-0.037925012
50	0x3d85abde	0.06526922
51	0xbe017c9c	-0.12645191
52	0x3e32e2fa	0.17469397
53	0x3e0fcb1a	0.14042321
54	0xbdb2cb0e	-0.08730136
55	0xbd7e14bc	-0.062031493
56	0x3e19b706	0.15011224
57	0xbdb93b9e	-0.09044574
58	0x3dce74e2	0.100808874
59	0x3d8877fa	0.06663509
60	0x3cba811b	0.02276664
61	0xbe14022e	-0.14453956
62	0x3d1823c6	0.03714349
63	0x3d420596	0.04736861
64	0x3e0d2fe5	0.13787802
65	0x3da21114	0.07913414
66	0x3e2567d3	0.16152887
67	0x3e24ae87	0.16082202
68	0xbdc98800	-0.09840393
69	0x3e0816e3	0.1328998
70	0x3dfc4716	0.12318246
71	0xbe2d2dff	-0.16912077
72	0xbe1bd58b	-0.15218179
73	0x3d330087	0.043701675
74	0xbe120bc7	-0.14262305
75	0xbc8f76c3	-0.017512685
76	0xbdfc3720	-0.12315202
77	0x3dc8f014	0.09811416
78	0xbdc442e2	-0.095830694
79	0x3e032da9	0.12810387
80	0x3d1d3ac9	0.03838614
81	0xbddd2630	-0.10798299
82	0xbbd49869	-0.0064878953
83	0x3d89537e	0.06705378
84	0xbe248aab	-0.16068523
85	0x3ac40fbf	0.0014958306
86	0x3da04d6a	0.078272656
87	0x3ca786d5	0.020450035
88	0xbe28e239	-0.16492547
89	0xbd3ae54f	-0.045628842
90	0xbe207cfb	-0.15672676
91	0x3e138331	0.14405514
92	0xbd03d97d	-0.032189835
93	0x3deb5a10	0.114917874
94	0x3e2de1cf	0.1698067
95	0xbda92378	-0.08258718
96	0xbe0ef1e8	-0.13959467
97	0xbcdf8853	-0.027286684
98	0x3e2bbdf2	0.16771677
99	0xbde35f23	-0.1110213
100	0xbcda9619	-0.0266829
101	0x3e143d2c	0.1447646
102	0x3d7b4d3f	0.061352964
103	0xbdfd36ed	-0.12363992
104	0xbe001765	-0.12508924
105	0xbe14025a	-0.14454022
106	0x3d7775f7	0.060415234
107	0x3d861f73	0.06548967
108	0xbb0ce793	-0.0021500334
109	0x3b4364eb	0.002981479
110	0x3a9fd27e	0.0012193469
111	0x3d0b895f	0.034066554
112	0x3c859b97	0.016309543
113	0xbe2506b2	-0.16115835
114	0xbc54ddad	-0.012992305
115	0x3d75a335	0.0599701
116	0xbcedf22b	-0.029046139
117	0x3e08bc28	0.13353026
118	0xbdaf30c2	-0.08554222
119	0xbe08562c	-0.13314122
120	0xbe0c74e0	-0.1371646
121	0xbc099cdb	-0.008399214
122	0x3dedd191	0.11612237
123	0xbe0f93b2	-0.14021185
124	0x3e2c5806	0.16830453
125	0x3e21f6d2	0.1581681
126	0x3d909773	0.07060137
127	0xbdca9695	-0.098920025
128	0xbd8821ba	-0.06647058
129	0xbe063913	-0.1310771
130	0xbdcfa016	-0.10137956
131	0xbda93474	-0.08261958
132	0xbd48ec6b	-0.04905359
133	0x3c834b79	0.0160272
134	0x3d0d8e97	0.034559812
135	0x3e2010eb	0.15631454
136	0x3e109278	0.14118373
137	0xbd20f739	-0.03929827
138	0x3dcd5994	0.10026851
139	0x3dac0238	0.08398861
140	0x3d591ad7	0.053004112
141	0xbe216b4f	-0.15763591
142	0x3dd78580	0.1052351
143	0xbdbdbdc6	-0.09264712
144	0xbddb2d0e	-0.10701953
145	0x3caafd99	0.020872878
146	0xbe09edc3	-0.13469605
147	0x3caa9051	0.020820769
148	0x3de92624	0.11384228
149	0x3e2f7c41	0.17137243
150	0x3c9b1735	0.018931964
151	0x3e260291	0.16211917
152	0x3dd9e6e8	0.10639745
153	0xbe0bdef3	-0.13659267
154	0x3e2b6b1b	0.16740076
155	0xbe056f1d	-0.13030668
156	0xbe05763d	-0.13033386
157	0x3cf21c99	0.029554652
158	0x3dab6360	0.08368564
159	0xbe000a05	-0.12503822
160	0x3e18d232	0.14923933
161	0xbda676c5	-0.08128122
162	0x3e2a6ca2	0.16643003
163	0xbd9d2edd	-0.07674954
164	0x3d298125	0.041382927
165	0xbdfbb28d	-0.12289915
166	0xbd54c5bd	-0.05194639
167	0x3e21dece	0.1580765
168	0x3ce3ec96	0.027822774
169	0x3e206482	0.1566334
170	0x3bd6c59f	0.00655432
171	0x3d95f60f	0.073223226
172	0xbdbcd4cd	-0.09220276
173	0x3e246950	0.16055799
174	0x3db36071	0.08758629
175	0xbdaa93f2	-0.083289996
176	0x3dd0575d	0.10172913
177	0xbe0c9298	-0.13727796
178	0x3d4eaa57	0.050455417
179	0xbdad7cd5	-0.084710754
180	0x3cdacf23	0.026710099
181	0x3d708f17	0.05873021
182	0xbe12a868	-0.14322054
183	0x3e2bbd02	0.1677132
184	0x3d0c504d	0.03425627
185	0x3d001dd9	0.031278465
186	0xbc9fabed	-0.01949116
187	0xbd3668c5	-0.04453351
188	0xbde2ba0f	-0.11070644
189	0xbe08e3f0	-0.13368201
190	0xbe037d42	-0.12840751
191	0x3daf0e7d	0.08547685
192	0x3d410f70	0.047133863
193	0x3c236a94	0.009974141
194	0xbddb6592	-0.107127324
195	0x3d31ccfa	0.04340837
196	0x3d789fd8	0.060699314
197	0xbd063398	-0.032764047
198	0x3e0535cb	0.13008802
199	0x3e17a7c7	0.14810096
200	0xbddb4072	-0.10705651
201	0xbe029cc9	-0.12755121
202	0x3d8dc52c	0.06922373
203	0xbe21250f	-0.15736793
204	0x3daa724e	0.08322583
205	0x3dae864e	0.0852171
206	0xbe03b2a5	-0.12861116
207	0x3e0acb27	0.13554059
208	0xbe1f08ef	-0.15530752
209	0x3d7a89c0	0.061166525
210	0x3dbb245e	0.09137796
211	0x3da9fb28	0.082998574
212	0xbdbcb03a	-0.092133
213	0xbbdc5f70	-0.006725244
214	0x3da9a8e4	0.082841665
215	0xbd934220	-0.07190347
216	0xbddef444	-0.10886434
217	0x3e0ee067	0.1395279
218	0xbc15f02c	-0.0091515
219	0x3dc11e52	0.09429611
220	0x3e2c026b	0.16797797
221	0x3d248568	0.04016629
222	0xbd9aab8a	-0.0755225
223	0x3e0c9b2d	0.1373107
224	0xbdebcabc	-0.11513278
225	0x3e234e82	0.15947917
226	0x3e1438f4	0.14474851
227	0xbdb432f4	-0.08798781
228	0xbd88bfb4	-0.066771895
229	0x3da17602	0.07883836
230	0x3c5d46eb	0.013505678
231	0x3dd45c9a	0.10369225
232	0x3dc3a6fe	0.095533356
233	0x3e1cd900	0.15317154
234	0x3dd57252	0.104221955
235	0x3ce84fd3	0.028358376
236	0xbdb34ed4	-0.0875527
237	0xbe17ed38	-0.14836586
238	0x3e3589aa	0.17728296
239	0xbe149ade	-0.14512202
240	0x3e1b540e	0.15168783
241	0xbdb03b08	-0.08605009
242	0x3c0a41a9	0.008438506
243	0x3dfbef4a	0.123015
244	0x3df7e62e	0.1210445
245	0xbdc86156	-0.0978419
246	0x3dac01bb	0.083987676
247	0x3e0744b6	0.13209805
248	0x3c642ba7	0.013926423
249	0x3e035c24	0.12828118
250	0xbe137468	-0.14399874
251	0xbe1db714	-0.1540187
252	0x3de8fbb6	0.11376135
253	0x3c5d5317	0.01350858
254	0xbe00f858	-0.12594736
255	0xbe177db2	-0.14794043

params f4 [32]
0	0x3dcb35d8	0.09922379
1	0x3df45bb4	0.119315535
2	0x3e204bed	0.15653963
3	0xbe1bafcc	-0.1520378
4	0xbe300c91	-0.17192294
5	0xbde6197d	-0.1123533
6	0xbd2fd5f4	-0.04292865
7	0x3d19ba31	0.03753108
8	0x3dbb8973	0.09157076
9	0xbd9be82f	-0.07612645
10	0xbdcfce2b	-0.10146745
11	0x3d9113db	0.07083865
12	0x3c862478	0.016374812
13	0xbceb1bbe	-0.028699752
14	0xbe28c81b	-0.16482584
15	0x3dd23407	0.1026383
16	0x3db36af8	0.08760637
17	0x3ddc3434	0.107521445
18	0xbdba4a86	-0.090962455
19	0xbdf9c13d	-0.121950604
20	0x3bac03d6	0.0052494807
21	0xbb8338ff	-0.004004597
22	0x3e0a8e29	0.13530792
23	0x3d996c7d	0.074913956
24	0xbe2529d6	-0.1612924
25	0x3dffa4dd	0.12482617
26	0x3dd4035b	0.103522025
27	0xbda6b1bc	-0.08139369
28	0xbc81a2f8	-0.01582478
29	0xbe00d625	-0.1258169
30	0x3d46f007	0.04856875
31	0xbe332ec9	-0.17498316

params f4 [9, 32]
0	0x3d1227df	0.035682555
1	0xbdec7670	-0.11546028
2	0xbe01bcab	-0.12669627
3	0x3e08b1c7	0.13349067
4	0xbe24246f	-0.16029523
5	0xbd9760c8	-0.073915064
6	0x3de5bb1f	0.11217331
7	0x3e104dfe	0.14092252
8	0xbcbf903e	-0.02338421
9	0xbdfd33a3	-0.123633645
10	0x3e0c5bf5	0.13706954
11	0xbd821000	-0.06350708
12	0xbc14118b	-0.009037386
13	0x3da79060	0.08181834
14	0x3d8c8aca	0.068624094
15	0x3d04e426	0.03244414
16	0x3d9b8c76	0.0759515
17	0xbd3b56d1	-0.04573709
18	0x3e0cbb03	0.13743214
19	0xbcbc24ea	-0.02296682
20	0xbe14a9b9	-0.14517869
21	0x3c93d545	0.01804603
22	0xbd011662	-0.031515487
23	0xbe264f89	-0.16241278
24	0xbe059e9c	-0.13048786
25	0xbcd01954	-0.025402702
26	0x3d56b503	0.05241872
27	0xbd1a994c	-0.03774385
28	0x3e1d46ab	0.15358989
29	0x3cea1b08	0.028577343
30	0x3d585a53	0.052820515
31	0x3e2c38bd	0.16818519
32	0xbd338942	-0.04383207
33	0xbddc9f0e	-0.10772525
34	0xbd87fa0e	-0.06639491
35	0xbd144f5f	-0.036208507
36	0xbe304ce3	-0.1721683
37	0x3d8ccdc5	0.06875185
38	0x3cc861c4	0.02446068
39	0x3e21e137	0.15808569
40	0x3e068342	0.13136008
41	0x3cde9596	0.027170938
42	0x3d119602	0.03554345
43	0x3d2ea283	0.042635452
44	0x3b70e5ed	0.003675814
45	0x3dd58718	0.10426158
46	0xbe03d8d5	-0.12875684
47	0xbdf3d620	-0.119060755
48	0x3bb7c7c1	0.0056085293
49	0x3d044272	0.03228993
50	0xbdb0ce36	-0.086330816
51	0xbdc64dae	-0.09682785
52	0xbe0a928a	-0.13532463
53	0xbc41be65	-0.011825179
54	0x3e239247	0.15973769
55	0xbe13a043	-0.14416604
56	0x3d8a3b83	0.06749632
57	0x3d25cc71	0.040478174
58	0x3b3b02e8	0.0028535668
59	0x3d187cec	0.03722851
60	0x3deacc20	0.11464715
61	0xbd518045	-0.051147718
62	0x3e1acde0	0.15117598
63	0xbe32c452	-0.17457703
64	0x3a2b817e	0.0006542428
65	0x3dc12c86	0.0943232
66	0xbc7b1987	-0.01532591
67	0xbe2ca4bb	-0.16859715
68	0x3d86fe74	0.06591502
69	0x3d65dd8f	0.056119498
70	0xbdaac37f	-0.08338069
71	0x3e2029a2	0.15640882
72	0x3e20ba1f	0.15696
73	0x3d0ec4d5	0.034855682
74	0xbd9c755a	-0.076395705
75	0xbe22db37	-0.15903936
76	0xbddd4364	-0.10803869
77	0x3e00e38a	0.125868
78	0x3e2f7e20	0.17137957
79	0xbe01eaec	-0.12687272
80	0x3dbccb0f	0.09218418
81	0xbd8e603b	-0.06951948
82	0x3bb3f11d	0.0054913894
83	0xbdb0c61f	-0.086315386
84	0x3d76b3f8	0.060230225
85	0xbd8dd5d1	-0.06925548
86	0x3bb51d30	0.005527161
87	0xbdda83c5	-0.10669664
88	0x3e36fb6b	0.17869346
89	0xbaa3dfc5	-0.0012502602
90	0x3e102fa7	0.14080678
91	0x3d0f66dd	0.035010207
92	0xbe15a23e	-0.14612672
93	0x3dbad346	0.091223285
94	0x3be1ee5d	0.00689487
95	0x3dfaaa8a	0.12239559
96	0xbe1263f0	-0.14295936
97	0x3e1c2f91	0.1525252
98	0xbd7c60d2	-0.061615773
99	0x3d30e2ee	0.043185167
100	0xbe0408a1	-0.12893917
101	0x3d0a8066	0.033813857
102	0xbe05e601	-0.13076021
103	0xbddc1539	-0.107462354
104	0xbd844b8f	-0.06459724
105	0x3d964cc4	0.07338861
106	0x3e32062b	0.17385165
107	0xbd3b55af	-0.04573601
108	0x3e041ffe	0.12902829
109	0x3d7504a0	0.059818864
110	0x3df71f8f	0.12066566
111	0x3daf22bb	0.08551546
112	0x3ba41141	0.0050069396
113	0xbcc72ab8	-0.024312362
114	0x3e11448e	0.14186308
115	0x3e0c108e	0.1367819
116	0x3e2c4679	0.16823758
117	0x3cb8e45c	0.022569828
118	0xbb2e03a6	-0.0026552468
119	0xbbaf8aba	-0.0053571137
120	0xbe10dd9c	-0.14147037
121	0x3dbcb91a	0.09214993
122	0x3d878da0	0.0661881
123	0x3d1a200c	0.03762822
124	0xbe24a9d4	-0.1608041
125	0x3e2b3238	0.16718376
126	0x3bee816a	0.007278611
127	0x3dad63c2	0.08466293
128	0x3d608305	0.05481245
129	0xbe150ad0	-0.14554906
130	0x3de6dcd5	0.11272589
131	0xbe012049	-0.12609972
132	0x3cff07bd	0.03113162
133	0xbd79797f	-0.060906883
134	0xbd8b31e6	-0.06796627
135	0x3c350d48	0.01105053
136	0xbe2381b0	-0.1596744
137	0xbdb58211	-0.08862699
138	0x3d06e1f2	0.032930322
139	0xbd5a7ebd	-0.053343523
140	0xbd041600	-0.032247543
141	0xbe08d427	-0.1336218
142	0xbdc1adcf	-0.094569795
143	0xbdda0017	-0.106445484
144	0xbe066a00	-0.13126373
145	0xbd66186b	-0.05617563
146	0xbca89d0f	-0.020582704
147	0xbde32e12	-0.110927716
148	0xbd1e1658	-0.038595527
149	0x3dba4b2a	0.09096368
150	0xbdb9bc0c	-0.0906907
151	0xbc19bc38	-0.009383254
152	0x3e1fddf5	0.15612014
153	0x3e23c764	0.1599403
154	0xbcf5dcc2	-0.030012492
155	0xbd864e2e	-0.0655788
156	0x3d1d8949	0.038461003
157	0x3e139a94	0.14414436
158	0xbd9392d8	-0.072057426
159	0x3d756e06	0.05991938
160	0x3cfbedeb	0.030753097
161	0xbcc30fb6	-0.023811202
162	0xbdb57948	-0.08861023
163	0xbd66c3a5	-0.056338925
164	0xbe24efac	-0.16107053
165	0xbc201669	-0.009770968
166	0x3dd89744	0.10575727
167	0xbe2da7c1	-0.16958524
168	0x3bebb783	0.007193507
169	0x3d90e3ed	0.070747234
170	0x3db40497	0.08789938
171	0x3dfe4d65	0.124171056
172	0x3e172341	0.14759542
173	0xbda88dbb	-0.08230158
174	0x3dccc561	0.099985845
175	0xbda1a423	-0.07892635
176	0x3d8f1a19	0.069873996
177	0xbe259681	-0.16170694
178	0xbd2d9b4a	-0.042384423
179	0x3b64a173	0.003488627
180	0x3e1cd3b1	0.15315129
181	0x3e31aa6f	0.17350172
182	0xbd1e85d7	-0.03870186
183	0x3e0f5e51	0.14000823
184	0xbc52cbfb	-0.012866016
185	0x3a8066af	0.0009796227
186	0x3d44846f	0.04797786
187	0x3e1473d2	0.14497307
188	0xbd112e52	-0.035444565
189	0xbbf9e2d4	-0.007625917
190	0xbe248425	-0.16066034
191	0xbe19c52a	-0.15016618
192	0x3c8f1307	0.017465128
193	0xbd6a2a90	-0.057169497
194	0xbd3c7ccb	-0.04601745
195	0xbdba0e47	-0.090847544
196	0x3df0dc28	0.117607415
197	0xbdf38e18	-0.118923366
198	0xbc940c93	-0.018072402
199	0xbac94cab	-0.0015357932
200	0x3e1eda0d	0.15512867
201	0xbe0d5880	-0.13803291
202	0x3c9f2d06	0.019430649
203	0xbd317faa	-0.04333464
204	0x3e0aa56b	0.13539664
205	0x3d5c7991	0.053826872
206	0x3d4167da	0.04721818
207	0x3df766b4	0.12080136
208	0xbd697587	-0.05699685
209	0xbe1b7936	-0.15182957
210	0xbd91fde8	-0.07128507
211	0x3dba008e	0.09082137
212	0xbe0961c8	-0.13416207
213	0x3ddd35dc	0.108012885
214	0x3d88128e	0.06644164
215	0x3d97e9ed	0.07417665
216	0xbdde0874	-0.10841456
217	0x3dfb79c1	0.12279082
218	0xbdc00570	-0.09376037
219	0xbe0412af	-0.12897752
220	0xbcb5b98b	-0.0221832
221	0x3e13ed08	0.14445889
222	0xbde4cfce	-0.11172448
223	0xbe1efda5	-0.15526445
224	0x3e0ac84e	0.13552973
225	0x3d4ea5cb	0.05045108
226	0x3c8ebb27	0.017423226
227	0xbd6fa05d	-0.058502544
228	0x3dab3d7f	0.08361339
229	0xbc5f4a69	-0.013628581
230	0x3d639269	0.05555955
231	0xbe064b40	-0.13114643
232	0xbb8d388a	-0.0043097185
233	0x3d986056	0.074402496
234	0x3b7b7c15	0.003837352
235	0xbdfa6877	-0.12226956
236	0xbd9980e4	-0.07495287
237	0x3d2a2486	0.041538738
238	0x3e255c2c	0.16148442
239	0xbd82c073	-0.06384363
240	0x3ce25a0e	0.027630832
241	0x3d825c07	0.06365209
242	0xbe15792b	-0.14597003
243	0x3e13c591	0.14430834
244	0x3e1b298c	0.15152568
245	0x3d42da7e	0.04757165
246	0x3e34a7c8	0.17642128
247	0xbd7bd17d	-0.06147908
248	0xbe0e0a46	-0.13871107
249	0x3dddb53a	0.10825582
250	0x3ca49907	0.0200925
251	0x3d8eb28c	0.06967649
252	0x3da0f8e3	0.078599714
253	0xbd931ef0	-0.07183635
254	0xbd1f05f7	-0.038824048
255	0x3d218f8d	0.03944354

params f4 [9]
0	0xbd25de5f	-0.040495273
1	0x3df1ae79	0.11800856
2	0xbd2e96cb	-0.042624276
3	0xbd812140	-0.0630517
4	0x3c93fca8	0.018064812
5	0xbd44ee17	-0.048078623
6	0xbdf768f4	-0.12080565
7	0xbcfb96d0	-0.030711561
8	0x3e071400	0.13191223
